…
5696/5778 [============================>.] - ETA: 0s - loss: 14.4579 - acc: 0.0690
5728/5778 [============================>.] - ETA: 0s - loss: 14.4503 - acc: 0.0690
5760/5778 [============================>.] - ETA: 0s - loss: 14.4502 - acc: 0.0689
5778/5778 [==============================] - 54s 9ms/step - loss: 14.4456 - acc: 0.0692 - val_loss: 14.2649 - val_acc: 0.0643
2 Layers, Filter size of 256
_________________________________________________________________
Layer (type)                 Output Shape              Param #   
=================================================================
conv2d_2 (Conv2D)            (None, 62, 62, 128)       1280      
_________________________________________________________________
max_pooling2d_2 (MaxPooling2 (None, 31, 31, 128)       0         
_________________________________________________________________
conv2d_3 (Conv2D)            (None, 29, 29, 256)       295168    
_________________________________________________________________
max_pooling2d_3 (MaxPooling2 (None, 14, 14, 256)       0         
_________________________________________________________________
flatten_2 (Flatten)          (None, 50176)             0         
_________________________________________________________________
dense_2 (Dense)              (None, 62)                3110974   
=================================================================
Total params: 3,407,422
Trainable params: 3,407,422
Non-trainable params: 0
_________________________________________________________________
None
Train on 5778 samples, validate on 1927 samples
Epoch 1/5

  32/5778 [..............................] - ETA: 3:31 - loss: 4.1822 - acc: 0.0938
  64/5778 [..............................] - ETA: 3:05 - loss: 7.7430 - acc: 0.0781
…
5696/5778 [============================>.] - ETA: 2s - loss: 0.9918 - acc: 0.7570
5728/5778 [============================>.] - ETA: 1s - loss: 0.9912 - acc: 0.7570
5760/5778 [============================>.] - ETA: 0s - loss: 0.9930 - acc: 0.7562
5778/5778 [==============================] - 190s 33ms/step - loss: 0.9927 - acc: 0.7563 - val_loss: 1.4335 - val_acc: 0.6482
3 Layers, Filter size of 512
_________________________________________________________________
Layer (type)                 Output Shape              Param #   
=================================================================
conv2d_4 (Conv2D)            (None, 62, 62, 128)       1280      
_________________________________________________________________
max_pooling2d_4 (MaxPooling2 (None, 31, 31, 128)       0         
_________________________________________________________________
conv2d_5 (Conv2D)            (None, 29, 29, 256)       295168    
_________________________________________________________________
max_pooling2d_5 (MaxPooling2 (None, 14, 14, 256)       0         
_________________________________________________________________
conv2d_6 (Conv2D)            (None, 12, 12, 512)       1180160   
_________________________________________________________________
max_pooling2d_6 (MaxPooling2 (None, 6, 6, 512)         0         
_________________________________________________________________
flatten_3 (Flatten)          (None, 18432)             0         
_________________________________________________________________
dense_3 (Dense)              (None, 62)                1142846   
=================================================================
Total params: 2,619,454
Trainable params: 2,619,454
Non-trainable params: 0
_________________________________________________________________
None
Train on 5778 samples, validate on 1927 samples
Epoch 1/5

  32/5778 [..............................] - ETA: 5:29 - loss: 4.3971 - acc: 0.0312
  64/5778 [..............................] - ETA: 4:46 - loss: 5.8114 - acc: 0.0469
…
